DNN/tamil_lstm_weights.pt (torch_old, 35793 bytes, 10 tensors)

weight_ih_l0 f4 [40, 81]
0.96357095 0.293327 -0.06084045 0.20928629 0.08045899 0.22554004 -0.9203395 -0.69794077
-0.018077787 -0.3044004 -0.4217809 -0.10936276 0.30282918 0.8608711 0.9315032 -0.045484114
0.256472 0.17945448 0.3687404 0.39639753 0.2085898 0.30844033 0.118276924 -0.29980826
-0.36287233 -0.26430926 0.33469462 -0.0030943148 0.4882992 -0.21759261 -0.19557887 -0.40234384
-0.13544115 -0.039243437 -0.3521198 0.025419278 -0.14132832 -0.21496332 -0.277518 -0.3136967
-0.09159245 0.465217 0.34767237 0.06924562 0.023872264 -0.30305874 -0.017388681 -0.37505573
0.15522791 -0.06794373 0.089140646 -0.23418388 0.19305834 1.046272 0.7878235 0.5428528
0.10413047 -0.051521447 0.28140822 0.18197009 -0.2606057 -0.04146653 0.5973494 1.4124482
1.6821842 1.5098206 0.6586443 1.0857754 0.22318503 0.4802401 -0.035549868 0.1201162
-0.72088474 -0.008143381 0.5433988 0.4203799 0.18363889 0.10949611 0.08171912 0.23572102
0.34832752 0.84603655 0.40217146 -0.43311182 -0.2685398 0.024912518 -0.09982941 0.20150492
-0.02220537 1.017033 0.618049 0.4955496 0.27804604 0.21275257 0.4558478 0.68639874
0.6223562 0.23062314 -0.2165086 -0.26078266 -0.04747575 -0.08568957 -0.33144397 0.056840897
0.2364199 0.6528959 0.5780605 0.19749303 0.0924427 0.2675793 0.0514327 0.20659661
-0.15744312 -0.07699986 0.21383455 0.884551 1.0704452 0.21932931 -0.42792407 -0.06509801
0.6838233 0.69191104 0.46973827 -0.07101773 0.19741483 0.55542207 0.08822064 -0.45657036
-0.07183923 -0.0667672 -0.059953004 0.07009436 0.082942635 0.2642123 0.19299169 -0.2948937
0.27740294 -0.3115475 0.023939556 -0.11139534 0.18053226 -0.24576302 1.1120535 0.7371842
0.14742266 -0.4473459 -0.058898307 0.1157204 -0.33387804 -0.056703936 -0.6510792 0.14237644
0.32595602 0.23472114 0.38144132 0.5510503 0.57763326 0.75198597 1.0925475 0.8669038
0.6380251 0.5469901 0.1404124 0.056960404 0.6443791 0.35509264 -0.39060032 -0.012879205
0.012097677 0.044218212 -0.51637673 -1.155481 -0.8722785 -0.39179534 -0.11958094 -0.40363654
-0.1302801 0.22723937 0.47252995 0.31673038 0.09264548 0.26513487 0.17198835 -0.6578181
-0.8479754 -0.8368767 -0.70637554 -0.19278939 0.20129578 0.15745907 0.17204669 0.33345017
0.12860195 0.22839956 -0.057363708 0.21137534 0.8518042 0.84676075 -0.22444054 -0.08232385
0.29417515 0.071237385 0.44512084 0.5914923 -0.27850547 0.013046566 0.5904936 0.5553775
0.2930914 0.5332253 0.019482661 0.01119503 -0.12813179 -0.096669085 -0.1982423 0.17709377
0.4299146 0.29606757 0.656078 0.10796631 0.5670663 0.6029454 0.52817 0.5039284
0.3193344 -0.04089112 -0.15484473 0.3934798 0.7001916 -0.37655866 0.03552208 0.28264076
0.459121 0.54878086 0.30038795 0.78655285 0.18076864 0.3072558 0.2762111 0.10227409
-0.18234885 0.11350055 -0.0031935067 0.27121982 -0.8645938 -0.38812122 -0.2296409 -0.10528404
-0.8133215 -0.12512566 0.034458768 -0.46946222 -0.17191972 0.47098237 0.10366614 -0.12829894
00000000: 96ac 763f f52e 963e d633 79bd 254f 563e
00000010: afc7 a43d f8f3 663e 5f9b 6bbf 3fac 32bf
00000020: de17 94bc 5fda 9bbe abf3 d7be 95f9 dfbd
00000030: 6d0c 9b3e 0c62 5c3f fe76 6e3f 8d4d 3abd
00000040: 4c50 833e eac2 373e 8bcb bc3e 9ef4 ca3e
00000050: 9198 553e e4eb 9d3e 2c3b f23d 7880 99be
00000060: 67ca b9be 8b53 87be 185d ab3e fdc9 4abb
00000070: 5a02 fa3e 99d0 5ebe d445 48be 0300 cebe
00000080: 16b1 0abe babd 20bd 0c49 b4be 173c d03c
00000090: 5fb8 10be 581f 5cbe d716 8ebe db9c a0be
000000a0: d394 bbbd ec30 ee3e 1d02 b23e a6d0 8d3d
000000b0: c48f c33c 842a 9bbe b572 8ebc 4e07 c0be
000000c0: 11f4 1e3e 1526 8bbd 5f8f b63d e6cd 6fbe
000000d0: 16b1 453e 3eec 853f cdae 493f 67f8 0a3f
000000e0: 5b42 d53d 2708 53bd bd14 903e 5e56 3a3e
000000f0: 1c6e 85be cfd8 29bd e4eb 183f 1acb b43f
00000100: d051 d73f cd41 c13f ea9c 283f b0fa 8a3f
00000110: 9e8a 643e 08e2 f53e bd9c 11bd 7bff f53d
00000120: e78b 38bf d16b 05bc 2f1c 0b3f 093c d73e
00000130: d50b 3c3e 7f3f e03d 5b5c a73d da60 713e
00000140: fc57 b23e da95 583f 6be9 cd3e d5c0 ddbe
00000150: 0c7e 89be 5615 cc3c 5d73 ccbd 4e57 4e3e
00000160: 09e8 b5bc 232e 823f 7638 1e3f adb8 fd3e
00000170: 0d5c 8e3e cfdb 593e e264 e93e d4b7 2f3f
00000180: bc52 1f3f 7928 6c3e 6eb4 5dbe 4e85 85be
00000190: ef75 42bd 037e afbd 06b3 a9be 00d2 683d
000001a0: 0f18 723e 3024 273f c6fb 133f 9d3b 4a3e
000001b0: 9952 bd3d 2700 893e 18ab 523d 108e 533e
000001c0: c538 21be 1ab2 9dbd 72f7 5a3e ef71 623f
000001d0: 5904 893f dd97 603e dd18 dbbe 1b52 85bd
000001e0: 0b0f 2f3f 1521 313f 8981 f03e be71 91bd
000001f0: 1d27 4a3e 2430 0e3f 06ad b43d 97c3 e9be
00000200: 7220 93bd 3ebd 88bd 4891 75bd a28d 8f3d
00000210: d4dd a93d d646 873e 9d9f 453e 4ffc 96be
00000220: c207 8e3e 2783 9fbe e31c c43c 3d23 e4bd
00000230: 73dd 383e 4da9 7bbe c557 8e3f 1bb8 3c3f
00000240: f7f5 163e 860a e5be 5a3f 71bd d1fe ec3d
00000250: 10f2 aabe 6342 68bd 20ad 26bf 21cb 113e
00000260: b5e3 a63e bd5a 703e 474c c33e a211 0d3f
00000270: c6df 133f 2782 403f 99d8 8b3f 68ed 5d3f
00000280: 9d55 233f 8b07 0c3f 45c8 0f3e 504f 693d
00000290: 07f6 243f b4ce b53e c4fc c7be 4d03 53bc
000002a0: 5635 463c 281e 353d 4431 04bf cde6 93bf
000002b0: a54d 5fbf 6699 c8be dae6 f4bd 73a9 cebe
000002c0: 2668 05be 70b1 683e 72ef f13e 7c2a a23e
000002d0: eabc bd3d c2bf 873e b71d 303e c466 28bf
000002e0: ea14 59bf 8d3d 56bf 07d5 34bf 956a 45be
000002f0: 7b20 4e3e f33c 213e 022d 303e fbb9 aa3e
00000300: 3bb0 033e 93e1 693e 35f6 6abd c772 583e
00000310: d70f 5a3f 50c5 583f bed3 65be 6899 a8bd
00000320: 209e 963e e8e4 913d e1e6 e33e 0a6c 173f
00000330: 4598 8ebe 44c1 553c 972a 173f 382d 0e3f
00000340: 1310 963e 7481 083f 1a9a 9f3c 5c6b 373c
00000350: fb34 03be 71fa c5bd 0800 4bbe 1258 353e
00000360: c41d dc3e 2b96 973e baf4 273f 711d dd3d
00000370: 422b 113f a15a 1a3f 2636 073f 7401 013f
00000380: cc7f a33e 727d 27bd 9e8f 1ebe 2f76 c93e
00000390: c23f 333f 4ccc c0be 9a7f 113d 4ab6 903e
000003a0: e811 eb3e e77c 0c3f 73cc 993e 875b 493f
000003b0: 6a1b 393e a250 9d3e 8b6b 8d3e 1475 d13d
000003c0: a8b9 3abe fa72 e83d 274a 51bb 53dd 8a3e
000003d0: 0556 5dbf d3b7 c6be fc26 6bbe 299f d7bd
000003e0: d635 50bf f120 00be a324 0d3d 5a5d f0be
000003f0: b90b 30be 9a24 f13e ea4e d43d cc60 03be

weight_hh_l0 f4 [40, 10]
0.19154552 -1.389997 0.57556146 -0.6136588 -0.04508629 -0.28433868 0.65509015 -0.28651607
0.039496068 0.122198 0.43741074 0.5952509 -1.2650552 -0.09148526 -0.18164387 0.06022972
-0.17341325 -0.024351079 -0.18281715 -1.2858701 0.5583364 -0.0077724736 -0.11762901 -0.23685804
0.9041258 1.2779142 1.2949325 0.24949113 -0.14724836 0.8524925 0.4589557 0.1950703
-0.22270618 -0.5189858 0.27986723 0.08245349 -0.37578598 -0.31836385 0.4251423 0.089265
0.24963936 0.011775849 -0.13397259 -0.36040276 0.10646206 -1.2405555 -1.2960483 0.0959909
-0.52419966 -1.0515672 -0.20306244 -1.3616855 -0.7976085 -0.16924736 -0.73588765 0.53433955
0.646984 -1.3980868 0.4727383 0.43624032 1.3391881 0.6784909 0.20143954 -1.1107421
1.2528722 -0.35591382 -0.7351422 -1.0351284 -0.033230234 -0.09768057 0.64545166 -0.92487454
-0.45250246 0.36834943 -1.0666543 0.08146363 0.9074269 -0.24361533 0.36924207 1.6859757
0.90362513 -0.53007823 0.017888796 0.8249686 -0.76458204 0.39007387 -0.07617734 1.0924286
-0.42808166 -0.14202943 0.10799349 0.36732382 -0.27827406 0.14623496 -0.09444885 -0.35407376
-0.13359044 0.26861337 -0.32354796 -0.48580357 1.1464309 0.65719855 0.016179798 0.26012394
0.44528687 -0.011078265 -0.7610562 0.27177784 -0.25225753 0.14195967 0.5504369 0.039469846
0.07935361 -0.44731128 0.64601374 -0.5037258 -0.059746962 -0.9168178 -0.51243865 0.24279706
0.67806304 -0.4429839 -0.22442093 0.09099313 -0.2576748 0.36062914 -0.14546663 0.07848064
-0.15862429 -0.16314596 -0.024134487 1.2086829 -0.55671674 0.5335851 -0.16009836 -0.66984725
0.014291647 -0.5803881 -0.9317046 0.04620009 -0.3371786 0.65315557 -0.039959956 0.5712499
0.7564196 1.3866649 0.43063292 -1.0374988 -0.04303071 0.26154095 -0.34078944 0.14645995
-0.68026966 -0.6274904 -0.20702168 -0.52649504 0.9250975 -0.25357878 0.46943626 -0.04014746
0.30559692 -1.0035483 0.41358542 0.050415065 0.019654628 -0.5340293 0.35785615 -0.2246054
0.75601727 -0.016667508 0.12337042 -0.64309675 -0.20783405 0.11678714 -0.32491648 -0.035212208
0.123836994 -0.52100706 0.15718138 -0.78606135 0.67355883 0.9117294 0.16851619 0.04795332
0.30798775 0.34541705 0.51021594 0.7717411 0.46529377 0.5811266 0.23080662 -0.19952105
-0.3801549 0.40509504 -0.09707588 1.0514941 -1.0582716 -1.0237491 -0.59345675 -0.576345
-0.41914797 -0.13004187 -0.7537653 0.5402447 0.14492549 0.3002497 -0.67149854 0.40122446
0.50570625 -0.042665053 -0.15646015 0.59759325 -0.38924032 0.6177604 0.073685706 -0.86902267
-0.79223424 -0.7404306 -0.282387 0.06713996 0.26922745 0.43895626 -0.17859443 0.90566266
-0.2893825 -0.64125586 0.50063306 -0.047811527 -0.8417745 -0.5830624 0.25463352 -0.5617894
-0.22131515 0.5628752 -0.78861785 -0.63854074 0.059490614 -0.2717782 0.7651782 0.46567032
0.20064646 0.076039754 0.20081867 0.11021757 -0.4008172 -1.1140808 -0.42264104 -0.58227634
0.29975638 0.983997 -0.2627087 1.4620401 1.3301387 0.6580699 -0.5346174 0.13502821
00000000: 8224 443e 6ceb b1bf ff57 133f be18 1dbf
00000010: 67ac 38bd d794 91be fdb3 273f 3cb2 92be
00000020: a1c6 213d f242 fa3d 4df4 df3e 5d62 183f
00000030: 54ed a1bf a05c bbbd da00 3abe 70b3 763d
00000040: 3e93 31be ea7b c7bc 6b34 3bbe 6497 a4bf
00000050: 22ef 0e3f 3cb0 febb 7ae7 f0bd ea8a 72be
00000060: ca74 673f b192 a33f 59c0 a53f 9a7a 7f3e
00000070: 46c8 16be f33c 5a3f 3efc ea3e 82c0 473e
00000080: 170d 64be 41dc 04bf c24a 8f3e 60dd a83d
00000090: 0567 c0be 9600 a3be 40ac d93e 91d0 b63d
000000a0: 76a1 7f3e 7eef 403c 1c30 09be b686 b8be
000000b0: c808 da3d 86ca 9ebf e9e4 a5bf e196 c43d
000000c0: f331 06bf c199 86bf 9aef 4fbe b64b aebf
000000d0: 1230 4cbf 2e4f 2dbe 2263 3cbf 7aca 083f
000000e0: bea0 253f 82f4 b2bf c10a f23e e45a df3e
000000f0: 846a ab3f 94b1 2d3f 2b46 4e3e cc2c 8ebf
00000100: 1e5e a03f 563a b6be 4732 3cbf 167f 84bf
00000110: 6d1c 08bd c00c c8bd 523c 253f 94c4 6cbf
00000120: 67ae e7be 4c98 bc3e 2188 88bf 67d6 a63d
00000130: 214d 683f 4c76 79be 4c0d bd3e 0dce d73f
00000140: fa53 673f 35b3 07bf 868b 923c 2431 533f
00000150: a6bb 43bf c3b7 c73e dd02 9cbd b3d4 8b3f
00000160: 852d dbbe 2a70 11be b12b dd3d de11 bc3e
00000170: f079 8ebe 9ebe 153e 666e c1bd 2849 b5be
00000180: efcb 08be b187 893e 14a8 a5be 3fbb f8be
00000190: 3fbe 923f 2a3e 283f 7f8b 843c f72e 853e
000001a0: a4fc e33e 9c81 35bc 94d4 42bf 7726 8b3e
000001b0: e627 81be e05d 113e 6fe9 0c3f 22ab 213d
000001c0: 2584 a23d fc05 e5be 2861 253f 2df4 00bf
000001d0: 3bb9 74bd 92b4 6abf 2e2f 03bf cb9f 783e
000001e0: 8a95 2d3f c9ce e2be 9ace 65be 9b5a ba3d
000001f0: f4ed 83be 62a4 b83e 34f5 14be 75ba a03d
00000200: 686e 22be bc0f 27be b0b5 c5bc 1fb6 9a3f
00000210: fd84 0ebf 0899 083f d3f0 23be 1c7b 2bbf
00000220: 8327 6a3c 5194 14bf 3184 6ebf 4e3c 3d3d
00000230: aca2 acbe 3435 273f 0dad 23bd 6f3d 123f
00000240: b7a4 413f 3c7e b13f eb7b dc3e c3cc 84bf
00000250: f840 30bd b2e8 853e f47b aebe 99f9 153e
00000260: 2726 2ebf 36a3 20bf 7efd 53be 61c8 06bf
00000270: 31d3 6c3f 14d5 81be f359 f03e aa71 24bd
00000280: 3377 9c3e 4574 80bf 78c1 d33e 0780 4e3d
00000290: be02 a13c 25b6 08bf ec38 b73e f5fe 65be
000002a0: 598a 413f 4c8a 88bc a1a9 fc3d fda1 24bf
000002b0: 73d2 54be 192e ef3d 745b a6be ad3a 10bd
000002c0: 409e fd3d b860 05bf 28f4 203e 513b 49bf
000002d0: 5a6e 2c3f 1967 693f 828f 2c3e b36a 443d
000002e0: 92b0 9d3e 81da b03e 839d 023f d390 453f
000002f0: fc3a ee3e b6c4 143f 9258 6c3e 3f4f 4cbe
00000300: aaa3 c2be 9e68 cf3e b8cf c6bd 5c97 863f
00000310: 7275 87bf 360a 83bf c8ec 17bf 598b 13bf
00000320: 909a d6be b229 05be c3f6 40bf 7a4d 0a3f
00000330: 5967 143e 54ba 993e 54e7 2bbf 4b6d cd3e
00000340: f775 013f 8dc1 2ebd 1737 20be dffb 183f
00000350: 824a c7be 8c25 1e3f 88e8 963d 4578 5ebf
00000360: ddcf 4abf dc8c 3dbf 0795 90be ad80 893d
00000370: 2ed8 893e e0be e03e 75e1 36be 82d9 673f
00000380: f129 94be 5829 24bf 7d29 003f 05d6 43bd
00000390: 897e 57bf 9443 15bf 535f 823e 6ed1 0fbf
000003a0: 70a0 62be 9718 103f dce2 49bf 6877 23bf
000003b0: 6eac 733d 8326 8bbe b8e2 433f 576c ee3e
000003c0: 4476 4d3e bbba 9b3d 69a3 4d3e c0b9 e13d
000003d0: e937 cdbe 339a 8ebf 6864 d8be 1010 15bf
000003e0: ab79 993e 3ae7 7b3f c181 86be 2124 bb3f
000003f0: fc41 aa3f 4577 283f b0dc 08bf d644 0a3e

bias_ih_l0 f4 [40]
0.4387594 0.09864506 0.7477179 0.68369114 -0.77936274 1.0723879 -0.15831438 0.22202712
-0.19028544 -0.3164758 -0.1392753 0.2424544 -0.5130701 0.42041284 0.12625109 -0.25875008
0.07403526 0.114023924 -0.06428359 0.77757186 -0.29400235 -0.41647992 -0.49768424 0.39863107
-0.37307614 0.17503531 -0.16362071 -0.39517543 0.15312135 0.3422849 0.3449213 0.6983413
-0.16644263 -0.26956552 0.6371239 0.9158619 0.8854496 0.97606266 0.341062 0.4421224
00000000: 12a5 e03e 6c06 ca3d 716a 3f3f 6206 2f3f
00000010: 5184 47bf 0244 893f 2a1d 22be 145b 633e
00000020: 30da 42be 1e09 a2be 2f9e 0ebe f745 783e
00000030: 9058 03bf 5a40 d73e f747 013e e47a 84be
00000040: cc9f 973d 6085 e93d 1da7 83bd f30e 473f
00000050: 7a87 96be db3c d5be 78d0 febe 5f19 cc3e
00000060: d603 bfbe 753c 333e 308c 27be 6f54 cabe
00000070: d8cb 1c3e f73f af3e 8699 b03e 7fc6 323f
00000080: f06f 2abe 7e04 8abe 8d1a 233f ed75 6a3f
00000090: d3ac 623f 3edf 793f ae9f ae3e de5d e23e

bias_hh_l0 f4 [40]
0.75593334 0.15038905 0.79475427 0.47377974 -0.76345706 1.2686828 0.17428581 0.58411616
0.094074585 -0.010952942 0.44094366 0.21148898 -0.6193377 -0.06712373 0.3411484 0.22703128
0.08578572 0.5182914 -0.14570947 1.0001042 -0.42892846 -0.2580569 -0.45061514 0.3025266
-0.42437696 0.24705456 -0.20122454 0.02832951 0.52779025 0.40381512 0.30716655 0.66032195
0.011499969 -0.0748149 1.116676 0.5986488 0.8539457 0.7938137 -0.08787595 0.572185
00000000: d984 413f 96ff 193e 0475 4b3f 4293 f23e
00000010: ec71 43bf 3364 a23f fb77 323e a388 153f
00000020: 2daa c03d f873 33bc 5ec3 e13e 9190 583e
00000030: ea8c 1ebf 2b78 89bd 01ab ae3e e37a 683e
00000040: 6cb0 af3d bfae 043f dd34 15be 6a03 803f
00000050: 839c dbbe 0920 84be 07b7 e6be c4e4 9a3e
00000060: f047 d9be dffb 7c3e ce0d 4ebe 4a13 e83c
00000070: 431d 073f dbc0 ce3e ef44 9d3e dc0a 293f
00000080: 5e6a 3c3c 8e38 99bd 3def 8e3f 0c41 193f
00000090: 2f9c 5a3f 6037 4b3f 4ef8 b3bd b77a 123f

weight_ih_l1 f4 [40, 10]
-1.9176567 0.24767715 0.69010776 0.6531311 0.61685425 0.15421213 0.7971074 -0.6926129
0.061026413 0.38878098 0.18525276 -0.23497592 -0.92547506 0.080127805 0.6296848 0.8455288
1.03274 -1.3171107 -0.44944206 1.1819587 0.2469032 -0.2934953 0.6262234 0.59435785
0.94047034 -0.8337993 -0.14597039 -0.41319078 0.68747056 0.2062781 -0.5140896 0.491929
-1.2923578 0.015493531 0.6458654 -0.30949685 1.986091 1.0677178 0.7421082 -0.23660973
-0.596498 0.24329631 1.5962824 -0.0019807625 -0.16674525 -1.2403479 -1.059563 -0.81299716
-0.47949466 -3.511377e-05 -0.43021804 -0.33906117 -0.8108869 0.6463327 -0.7110483 -0.7353776
-0.37029728 0.12203991 0.08551082 -0.3962491 0.24520387 -0.67050105 0.34526014 -1.6463081
-0.4767713 -1.5950568 0.6918444 -0.46447816 -0.79200786 0.38267335 -0.11105177 -0.6170181
1.2336698 -0.9323867 -0.18838543 0.79757774 0.007425473 0.6760796 0.49366462 -0.86647457
0.29556733 -0.64062923 0.3079944 0.11421699 0.019631907 -0.24734803 0.3675975 0.7379196
0.92290354 -0.25169563 -0.19738412 -0.41695398 0.2163647 -0.44411692 -1.4565724 -0.083028734
-0.88792473 -0.58783406 0.031191949 -0.15950407 0.58769995 -0.32960293 -0.40203586 -0.6817125
0.33936146 -0.11325648 0.13917209 -0.76777405 -0.20021369 -0.7382799 -0.36710045 -0.098639145
-0.3410682 -0.49961576 -0.0027956304 0.30938104 -0.17394376 0.4216989 -0.3945708 -0.08205105
0.85511285 0.42899236 -0.06353138 1.0351694 1.68446 0.24082269 -0.31790558 0.42645386
0.72042346 1.034563 -0.10519024 -0.6216014 -0.027519263 -0.9506693 -0.5324975 -1.14117
-0.6548308 -0.26191676 0.9048659 -0.26747507 -0.14669375 -0.37330952 0.15957274 -1.1747162
-0.28131732 -0.17353354 0.9717494 -0.9431897 -0.18983743 -0.9242484 0.014113233 1.314803
0.88634646 -0.39178053 -0.3797554 -0.43287364 1.0637081 0.08258605 0.12051088 0.607511
-0.43818155 -0.88946104 -0.18673894 -1.3365285 1.3208089 -0.429916 0.095270045 0.58669347
0.04301379 0.25485203 0.3962981 -1.1340475 0.823766 -0.28734225 0.38149136 -0.09072669
0.16540429 -0.5050467 -0.8325519 0.84068793 0.054406784 0.2193324 0.10423244 -0.20868087
0.6565968 -0.07108783 -0.1996074 0.67762494 1.1395386 0.20649806 -0.7092033 0.24774046
-0.70808053 -0.29546943 0.44026327 -0.2559787 0.672184 -0.21976356 -0.49722996 1.0145648
0.19825858 -0.21365727 -0.16172609 -0.7959609 1.1377814 0.14513685 -0.84880537 0.8299132
-0.7674806 0.9903236 -0.17381115 0.110507466 -0.9940027 -1.017091 0.07202344 -0.49567953
0.003625358 -0.19123575 0.06879303 0.8300617 -1.2010587 0.617838 0.5733401 -0.14064147
-0.55122197 0.6474775 1.2283883 -0.41355735 0.5938708 -0.41200903 -1.3175447 0.36153573
0.12667926 0.2056111 -0.4115891 -0.045959916 -2.1282687 0.9436269 0.57216054 -0.4533978
-0.5869698 0.22342446 -0.12664194 -0.24209602 0.9712952 0.66375387 -0.9766421 -1.3447231
-0.38915744 0.71127427 0.565514 -0.6864147 1.0770684 0.5407305 0.19962959 0.5966789
00000000: c675 f5bf 149f 7d3e e7aa 303f 9a33 273f
00000010: 29ea 1d3f c9e9 1d3e 3b0f 4c3f 144f 31bf
00000020: d5f6 793d 4d0e c73e e6b2 3d3e 879d 70be
00000030: efeb 6cbf 0c1a a43d 0633 213f 9374 583f
00000040: d330 843f 1597 a8bf 451d e6be 6c4a 973f
00000050: 31d4 7c3e 0445 96be 2d50 203f d627 183f
00000060: aac2 703f df73 55bf 4379 15be be8d d3be
00000070: 12fe 2f3f 913a 533e 609b 03bf 1ede fb3e
00000080: fb6b a5bf 94d8 7d3c 6f57 253f 5f76 9ebe
00000090: 3b38 fe3f faaa 883f cefa 3d3f d249 72be
000000a0: 18b4 18bf ab22 793e fb52 cc3f aecf 01bb
000000b0: 44bf 2abe b8c3 9ebf c39f 87bf 9520 50bf
000000c0: 5380 f5be 2047 13b8 8a45 dcbe 6d99 adbe
000000d0: 4996 4fbf 0f76 253f 4307 36bf b541 3cbf
000000e0: 9b97 bdbe 0ff0 f93d 4c20 af3d 29e1 cabe
000000f0: b916 7b3e f5a5 2bbf f0c5 b03e 39ba d2bf
00000100: 5e1b f4be d22a ccbf b71c 313f 15d0 edbe
00000110: 07c1 4abf c3ed c33e 1c6f e3bd e6f4 1dbf
00000120: e4e8 9d3f e5b0 6ebf 1ce8 40be 0e2e 4c3f
00000130: 6251 f33b 8d13 2d3f 9cc1 fc3e 47d1 5dbf
00000140: 9a54 973e 4700 24bf 71b1 9d3e 99ea e93d
00000150: 18d3 a03c cd48 7dbe bd35 bc3e 4de8 3c3f
00000160: 6843 6c3f 40de 80be 101f 4abe fe7a d5be
00000170: b58e 5d3e 4b63 e3be f770 babf f80a aabd
00000180: 094f 63bf 4b7c 16bf 4286 ff3c 0955 23be
00000190: 8173 163f b7c1 a8be a5d7 cdbe b684 2ebf
000001a0: c9c0 ad3e 03f3 e7bd 2183 0e3e d78c 44bf
000001b0: d104 4dbe e9ff 3cbf 97f4 bbbe 5203 cabd
000001c0: 7ea0 aebe a3cd ffbe e536 37bb 3167 9e3e
000001d0: 501e 32be ebe8 d73e 2f05 cabe 620a a8bd
000001e0: ade8 5a3f e3a4 db3e bd1c 82bd 6e80 843f
000001f0: 639c d73f 399a 763e 85c4 a2be 2958 da3e
00000200: ac6d 383f 8f6c 843f fb6d d7bd 4521 1fbf
00000210: 1470 e1bc 105f 73bf c251 08bf dc11 92bf
00000220: fea2 27bf f419 86be 4ba5 673f 7ef2 88be
00000230: e336 16be 6d22 bfbe 0967 233e 1a5d 96bf
00000240: d308 90be c7b2 31be 92c4 783f e174 71bf
00000250: be64 42be 8b9b 6cbf 313b 673c 774b a83f
00000260: 9ae7 623f 7597 c8be 4d6f c2be 9da1 ddbe
00000270: 9627 883f e022 a93d 69ce f63d d785 1b3f
00000280: 5559 e0be b8b3 63bf 7e38 3fbe 5e13 abbf
00000290: 4410 a93f f31d dcbe f11c c33d 8b31 163f
000002a0: 3a2f 303d f77b 823e 96e7 ca3e 7828 91bf
000002b0: 54e2 523f 861e 93be d652 c33e eace b9bd
000002c0: be5f 293e be4a 01bf 1f22 55bf 5337 573f
000002d0: a6d9 5e3d ac98 603e d177 d53d 70b0 55be
000002e0: ba16 283f 7f96 91bd e265 4cbe d478 2d3f
000002f0: 67dc 913f 3a74 533e 598e 35bf adaf 7d3e
00000300: c444 35bf c547 97be 306a e13e a40f 83be
00000310: 4014 2c3f b309 61be ed94 febe 42dd 813f
00000320: 4c04 4b3e f9c8 5abe 869b 25be 18c4 4bbf
00000330: d2a2 913f c19e 143e 4f4b 59bf 3175 543f
00000340: 9c79 44bf d985 7d3f 8dfb 31be bd51 e23d
00000350: f676 7ebf 0a30 82bf 0681 933d b5c9 fdbe
00000360: 6a97 6d3b 4ed3 43be 5ce3 8c3d ec7e 543f
00000370: 4bbc 99bf a22a 1e3f 6bc6 123f 5104 10be
00000380: e21c 0dbf 16c1 253f d43b 9d3f cabd d3be
00000390: eb07 183f d9f2 d2be 4ea5 a8bf 361b b93e
000003a0: 35b8 013e b78b 523e cebb d2be 7740 3cbd
000003b0: 8e35 08c0 8891 713f 1d79 123f c223 e8be
000003c0: a743 16bf 62c9 643e 6dae 01be 05e8 77be
000003d0: cda6 783f c6eb 293f 3705 7abf e31f acbf
000003e0: a53f c7be 1216 363f 87c5 103f e0b8 2fbf
000003f0: 61dd 893f 506d 0a3f b36b 4c3e f3bf 183f

weight_hh_l1 f4 [40, 10]
0.7454082 0.6035931 -0.58287555 0.2562111 -0.5731469 -0.1354368 0.21720831 -1.190751
0.017335128 -0.12561612 0.8057057 -0.70035475 -0.47074428 0.4958021 -0.0071098967 -0.020296581
0.3967544 -0.9528429 -0.34151778 0.31107634 0.118937194 1.1213542 -0.08124903 -0.3270833
-0.6983269 0.16613357 -0.24044555 0.3320116 -1.1402484 -0.079882324 0.17054579 -0.9907297
-0.38856232 -0.31844497 0.031992365 0.89219916 -0.08468029 0.10317115 -0.53444695 0.5971937
0.1222483 -0.018641321 -0.17979392 0.2391629 -0.0894561 -0.80110925 0.4679896 -0.3414133
-0.043677203 0.6190996 -0.14167283 0.46760818 -0.35773617 0.78287154 -0.43599245 0.8262679
0.96746475 -0.34993315 -0.3623961 1.0569688 -0.27745542 -1.2664663 -0.5425044 0.26007512
0.1881435 -0.11296321 -0.96747094 -0.08359329 -0.3734216 0.83950233 -0.61519426 0.33997485
0.26590547 -0.2958879 -0.49515533 -0.34580547 0.19699927 0.05387299 -0.90456873 0.010756599
0.006024049 0.08688155 -1.2625711 0.73416644 -1.0319061 0.91293037 -0.76475376 0.4883669
-0.5307094 0.078711264 0.44259834 -0.17122847 -0.670582 -0.3046974 0.81175536 1.0953214
-0.15067145 -0.51200753 -0.2665198 -0.7529915 -0.50682 0.26304364 -0.032452945 -0.14995101
0.50031203 -0.11003971 0.1676106 0.053818867 -0.27275705 0.30729634 -0.56709635 -0.20114675
-0.018825065 0.6656373 0.58613515 -0.13482144 0.44044843 -0.48675767 0.29790857 -0.040183365
0.25020662 -0.14351566 0.18491057 -0.39435294 0.20122266 -0.12291656 -0.6469771 0.044576578
-0.38666975 0.36977488 -0.40345398 0.7667257 0.22086065 -0.045143485 -1.0567518 0.50762457
0.26493588 0.4521693 0.13165936 0.20512193 -0.4522568 0.34819067 -0.03360403 -0.42724717
-0.3965094 0.1936454 0.5008525 -0.4546984 0.14437203 0.41003954 -0.07049623 1.0455502
-0.38334036 0.19416633 -0.024609892 -0.546758 -0.6403301 0.10509716 -0.22767292 0.049975295
-0.2688807 -0.51017666 -0.35932267 0.4168672 -0.09774033 -0.30605203 -0.06418927 0.16807517
-0.16885386 -0.11699368 0.43336904 -0.10924788 0.37809145 0.6042243 -0.011339145 0.10518635
0.41627967 -0.10217959 0.39217955 -0.20857224 -0.13031724 0.274858 0.41385928 -0.59227556
-0.055861786 0.1709423 -0.4792504 0.32059652 -0.35033613 -0.25689974 0.22169097 0.78683794
-0.88490283 -0.32196307 -0.050666645 -0.74376893 0.055382576 -0.043079764 -0.115174934 0.43741465
0.007341144 0.42233518 0.6154315 0.0017217062 -0.19444148 -0.11087998 -0.04014657 -0.010141864
-0.17334394 -0.33644217 -0.3812865 -0.14089 0.074546374 -0.48513445 -0.5924962 -0.24699171
0.6692025 -0.30025908 0.6277347 -0.15125136 -0.3576455 -0.05932394 0.06686687 0.2813357
-0.23732427 -0.33086547 0.33584756 0.20667881 -0.6279367 -0.30296957 0.19406343 0.029056812
-0.14149493 0.343723 -0.2511753 0.51233494 0.19065279 0.42845652 0.14452791 -0.033652417
0.60972995 0.29248124 -0.21231718 0.007575396 0.04563069 -0.29221773 -0.5009294 0.03378489
-0.28436142 -0.14749104 -0.13464206 0.2951634 -0.29492226 -0.03630246 -0.17653322 -0.14841287
00000000: 12d3 3e3f 1485 1a3f 5537 15bf 1a2e 833e
00000010: c1b9 12bf f2af 0abe db6b 5e3e 876a 98bf
00000020: 6602 8e3c 83a1 00be bb42 4e3f 734a 33bf
00000030: 6505 f1be c6d9 fd3e 23fa e8bb 0445 a6bc
00000040: 6523 cb3e 83ed 73bf 6bdb aebe 6645 9f3e
00000050: 5895 f33d 8988 8f3f e465 a6bd 7677 a7be
00000060: 8dc5 32bf eb1e 2a3e 5c37 76be 6dfd a93e
00000070: a9f3 91bf 5899 a3bd 8ea3 2e3e 76a0 7dbf
00000080: a4f1 c6be 380b a3be 6d0a 033d 2a67 643f
00000090: dc6c adbd 654b d33d 84d1 08bf b0e1 183f
000000a0: 515d fa3d afb5 98bc e61b 38be 1fe7 743e
000000b0: c234 b7bd 7f15 4dbf 559c ef3e b9cd aebe
000000c0: dee6 32bd 507d 1e3f af12 11be 576a ef3e
000000d0: 3229 b7be 456a 483f 673a dfbe 4b86 533f
000000e0: c5ab 773f 702a b3be fb8b b9be c14a 873f
000000f0: a30e 8ebe 911b a2bf 91e1 0abf 9128 853e
00000100: b1a8 403e 4159 e7bd 2dac 77bf f532 abbd
00000110: 1e31 bfbe a0e9 563f 5f7d 1dbf 2f11 ae3e
00000120: c324 883e 9e7e 97be 0085 fdbe 6a0d b1be
00000130: 2dba 493e eda9 5c3d d191 67bf 723c 303c
00000140: 6365 c53b f4ee b13d ee9b a1bf 55f2 3b3f
00000150: 8015 84bf ceb5 693f e7c6 43bf 3a0b fa3e
00000160: 92dc 07bf 5f33 a13d 409c e23e 8456 2fbe
00000170: 43ab 2bbf 4c01 9cbe 33cf 4f3f 7e33 8c3f
00000180: 9e49 1abe ed12 03bf 4975 88be 0dc4 40bf
00000190: f5be 01bf a8ad 863e 61ed 04bd c28c 19be
000001a0: 7314 003f 805c e1bd 1da2 2b3e 2c71 5c3d
000001b0: d0a6 8bbe f255 9d3e 3a2d 11bf 6af9 4dbe
000001c0: 0637 9abc 3567 2a3f f40c 163f a20e 0abe
000001d0: 7582 e13e 4d38 f9be 7987 983e 5097 24bd
000001e0: 151b 803e c5f5 12be 3259 3d3e a1e8 c9be
000001f0: 500d 4e3e adbb fbbd 4ba0 25bf ee95 363d
00000200: 94f9 c5be 2253 bd3e 8591 cebe 2348 443f
00000210: 4b29 623e 60e8 38bd a543 87bf aff3 013f
00000220: ada5 873e bc82 e73e b6d1 063e 7c0b 523e
00000230: 348e e7be 0c46 b23e 61a4 09bd 24c0 dabe
00000240: 4803 cbbe fb4a 463e df37 003f 3bce e8be
00000250: 43d6 133e b4f0 d13e 5460 90bd 97d4 853f
00000260: 3045 c4be 8ad3 463e af9a c9bc 55f8 0bbf
00000270: acec 23bf 2e3d d73d 1723 69be e5b2 4c3d
00000280: bbaa 89be f09a 02bf 24f9 b7be 9e6f d53e
00000290: 152c c8bd dab2 9cbe aa75 83bd e61b 2c3e
000002a0: 07e8 2cbe 629a efbd 8ce2 dd3e 5abd dfbd
000002b0: 3495 c13e 72ae 1a3f d2c7 39bc f16b d73d
000002c0: 9c22 d53e 8843 d1bd c2cb c83e f693 55be
000002d0: e271 05be 30ba 8c3e 5de5 d33e 5f9f 17bf
000002e0: 54cf 64bd 800b 2f3e 4f60 f5be 3a25 a43e
000002f0: 425f b3be 5d88 83be f502 633e 366e 493f
00000300: fe88 62bf 58d8 a4be d487 4fbd a467 3ebf
00000310: d7d8 623d 6874 30bd d6e0 ebbd d0f4 df3e
00000320: fb8d f03b 513c d83e eb8c 1d3f e0aa e13a
00000330: ab1b 47be 0b15 e3bd bb70 24bd 102a 26bc
00000340: 1381 31be 2642 acbe fc37 c3be 7845 10be
00000350: c5ab 983d 8b63 f8be d5ad 17bf 65eb 7cbe
00000360: db50 2b3f 8fbb 99be 39b3 203f a3e1 1abe
00000370: 501d b7be a9fd 72bd 7ff1 883d 3c0b 903e
00000380: 2205 73be 3367 a9be 36f4 ab3e 9ca3 533e
00000390: 76c0 20bf d41e 9bbe 90b8 463e 8d08 ee3c
000003a0: 0ce4 10be 76fc af3e 0d9a 80be 6228 033f
000003b0: 7c3a 433e a75e db3e 20ff 133e 1ed7 09bd
000003c0: 4317 1c3f 1ac0 953e ad69 59be 073b f83b
000003d0: 3fe7 3a3d 909d 95be e93c 00bf 0662 0a3d
000003e0: d297 91be e407 17be 9cdf 09be a81f 973e
000003f0: 0d00 97be e3b1 14bd 20c5 34be 8bf9 17be

bias_ih_l1 f4 [40]
0.6489771 0.71848834 0.80651927 0.5043907 0.010548435 0.76878315 0.54454106 0.68220294
0.98032546 0.59325874 0.18771432 0.7748922 -0.10586592 0.17057486 0.4649396 0.13562594
-0.101308525 0.5451858 0.23922008 0.30110306 0.09270282 0.04403206 -0.021422785 0.32593226
-0.10196383 0.0899661 -0.1402023 -0.12339813 -0.14675073 0.2113195 1.3262227 0.9897053
0.8173358 1.1356425 0.7033281 1.3905284 0.80313396 1.740261 1.587088 1.1816074
00000000: 5d23 263f daee 373f 0c78 4e3f c01f 013f
00000010: 58d3 2c3c f9ce 443f 0b67 0b3f daa4 2e3f
00000020: 9cf6 7a3f cedf 173f 2f38 403e 565f 463f
00000030: 3bd0 d8bd 2dab 2e3e 900c ee3e 87e1 0a3e
00000040: d87a cfbd 4c91 0b3f 1cf6 743e 2e2a 9a3e
00000050: fada bd3d f65a 343d d67e afbc 98e0 a63e
00000060: 6ad2 d0bd 2640 b83d 3191 0fbe 29b8 fcbd
00000070: d345 16be 2464 583e aac1 a93f 545d 7d3f
00000080: eb3c 513f bc5c 913f 4f0d 343f d6fc b13f
00000090: 309a 4d3f dfc0 de3f b325 cb3f e93e 973f

bias_hh_l1 f4 [40]
0.5681212 0.3725686 0.59450537 0.30905694 0.5687572 0.90020484 0.44583663 1.1352897
1.2324436 1.0033982 0.7874438 0.20645559 0.24672051 -0.14208524 0.5526066 -0.27408963
-0.02994534 0.20161709 -0.3510897 0.28418693 -0.21489555 -0.07352716 0.0994751 0.03363779
-0.10352721 0.4650445 -0.10337161 -0.13273044 -0.0780235 -0.010058452 1.1851131 1.1300348
0.8895402 0.95223486 0.94661385 1.6433004 0.8070699 1.5096182 1.2824669 1.3315805
00000000: 6470 113f 50c1 be3e 8131 183f b63c 9e3e
00000010: 129a 113f d373 663f b344 e43e 2c51 913f
00000020: b6c0 9d3f 5a6f 803f eb95 493f 1869 533e
00000030: 4da4 7c3e cb7e 11be a077 0d3f 7a55 8cbe
00000040: ee4f f5bc b674 4e3e 07c2 b3be f380 913e
00000050: 940d 5cbe 6895 96bd 9ab9 cb3d c7c7 093d
00000060: 1306 d4bd 501a ee3e 7fb4 d3bd 7dea 07be
00000070: c9ca 9fbd 35cc 24bc c9b1 973f fba4 903f
00000080: e8b8 633f aac5 733f 4955 723f ab57 d23f
00000090: 229c 4e3f 2b3b c13f e027 a43f 3b71 aa3f

weight f4 [10, 10]
1.0778922 -2.5270855 -0.98885304 -1.7732553 0.8187374 0.76574117 -1.7816088 -0.3055961
1.288142 0.20870058 -1.0999863 -0.18439057 -1.0576243 0.9204083 0.10618503 -0.53539324
-0.61864364 2.1221204 1.5615703 1.2755895 0.59599274 1.663279 -0.7853349 -0.52050096
2.2763383 -2.2780042 -1.7049035 0.31449792 -0.5957832 1.3481542 1.2271439 -1.218514
1.7261164 -2.2077434 1.7322121 -1.2547152 -0.5167472 -0.9510244 -0.80047685 -1.1859066
0.8546222 1.4190682 -0.09337466 1.4634794 -1.5321969 -0.13366085 1.6969973 -0.45556834
1.1620661 -1.3352149 -2.3854284 -1.3374581 0.33328772 -1.5481021 0.40690956 1.021764
1.6217043 -0.7772353 0.26056147 -1.2097005 -0.36174032 -0.6602499 1.1677009 1.0173279
-0.8476594 -2.0018094 0.17336042 1.088465 -1.9763234 1.4197631 -0.32034802 -1.118664
1.6690764 0.39242554 -0.6850112 1.6120807 -0.80358285 2.766434 -1.3357044 -1.739386
1.4689803 1.1527754 -0.71930444 -0.97251827 1.076735 1.6469054 0.21890517 -0.75318944
1.45146 -0.016860122 -1.2216451 0.98949987 0.12916997 -1.8116822 -2.0115466 1.2332059
-1.1443897 -0.75997025 -0.5406391 0.6677671
00000000: 5ff8 893f c5bb 21c0 7925 7dbf 08fa e2bf
00000010: c698 513f 9d07 443f c20b e4bf 1877 9cbe
00000020: d6e1 a43f 9bb5 553e 5acc 8cbf e2d0 3cbe
00000030: 3c60 87bf e19f 6b3f 8977 d93d 880f 09bf
00000040: 6e5f 1ebf d2d0 0740 89e1 c73f 8446 a33f
00000050: fb92 183f 54e6 d43f b50b 49bf 8d3f 05bf
00000060: 87af 1140 d2ca 11c0 473a dabf df05 a13e
00000070: 3f85 18bf 5190 ac3f 0d13 9d3f 44f8 9bbf
00000080: 62f1 dc3f ab4b 0dc0 20b9 dd3f 829a a0bf
00000090: 8b49 04bf 5676 73bf 0dec 4cbf cacb 97bf
000000a0: 85c8 5a3f 07a4 b53f 373b bfbd 4b53 bb3f
000000b0: 071f c4bf 64de 08be 3537 d93f 4140 e9be
000000c0: 95be 943f 52e8 aabf dcaa 18c0 d431 abbf
000000d0: b0a4 aa3e 3628 c6bf 7356 d03e 2ac9 823f
000000e0: 0294 cf3f e5f8 46bf 5068 853e 77d7 9abf
000000f0: 0736 b9be 2306 29bf 3977 953f cd37 823f
00000100: 3500 59bf a51d 00c0 6585 313e d252 8b3f
00000110: 2af8 fcbf ccba b53f a804 a4be 6230 8fbf
00000120: 4ca4 d53f 00ec c83e e55c 2fbf a958 ce3f
00000130: 9bb7 4dbf 410d 3140 5df8 aabf 33a4 debf
00000140: 8c07 bc3f 258e 933f 5624 38bf f5f6 78bf
00000150: 74d2 893f cccd d23f ad28 603e 06d1 40bf
00000160: 71c9 b93f 3d1e 8abc de5e 9cbf dd4f 7d3f
00000170: 2245 043e 34e5 e7bf 2ebd 00c0 b1d9 9d3f
00000180: 5d7b 92bf 698d 42bf 5367 0abf c9f2 2a3f

bias f4 [10]
0.018037427 0.20365724 -0.28047153 -0.21656375 -0.32597455 -0.066207916 0.056260765 0.03826019
0.22943036 0.035341606
00000000: 3ac3 933c 868b 503e f799 8fbe e3c2 5dbe
00000010: 23e6 a6be 0498 87bd b071 663d b8b6 1c3d
00000020: cbef 6a3e 5cc2 103d
