DNN/telugu_lstm_weights.pt (torch_old, 34831 bytes, 10 tensors)

weight_ih_l0 f4 [40, 75]
00000000: 5c65 753c 2b4e 093e be09 af3d 6f6c 3ebe
00000010: 8c85 e83d 655f 423e 5bfa a03d 9155 1f3e
00000020: 45c1 79bd cfaa eebe 6741 5abe e5e7 a83e
00000030: b4d0 54be 52f1 9bbe 952f 203f 77fa f33d
00000040: 2b98 f93d cf06 acbe 6384 93be 1764 2a3c
00000050: ccc5 913e 734b 9f3d 4e24 f43c 700e 2abd
00000060: e294 043f 4927 5d3d d99d f53e 15ee 48bd
00000070: ce2d 80bc c99b eebe 47dc ebbe 4b17 96bd
00000080: 6104 703d be3d 963d a69c 1dbc 0955 3d3c
00000090: 51bd 98be 3c6e 433e e31c b4be a941 c9bd
000000a0: d4f4 b3bd 300b 0fbe c448 9fbe fbbd cd3d
000000b0: f49a 093e 08c8 a6be 8f9c 573d 580c 133d
000000c0: 3533 1d3e 2c9f 54be be34 4fbd 2f46 ee3d
000000d0: 54d5 46be 3e6f bdbd d422 4dbe 2c8c aabe
000000e0: ea87 74be 2309 30bc ee79 9ebe 175d b43e
000000f0: bd02 b03d 8c91 d33d 782c 793e 47d7 6abe
00000100: 9c97 e3bc 97c6 13be 10a4 cabe d8d5 09be
00000110: bc5d 60bc e1e8 e13c 184c 9cbd f2cb b13c
00000120: f7ab b53e 3470 383d aeb7 64be 96ec 17be
00000130: b473 c23c b05b 953e cb70 a63e 22a5 5bbe
00000140: 35cb a0bd 2c0d 02be a5c0 66bd 4105 1ebe
00000150: c546 9e3c 44b0 433e 1896 983e 660e 09be
00000160: 347f eebd f1be febe 7b32 42bf 50d8 90be
00000170: b193 aebe 9b42 27be 1c36 1abf cd6e 4ebd
00000180: 9b99 123e 5c29 2b3d 9316 503e 5ce9 493d
00000190: 6ab9 e3bd 8e3f b83e f0db 783e a560 95be
000001a0: a81e d13d 75a7 0ebf fc89 f3bd e140 9e3e
000001b0: 5e1e 97bd 1265 98be c930 99bc ace1 73be
000001c0: 98a8 babc a28c 5fbe 3130 623e 7861 853d
000001d0: 1891 39bd 5e65 bbbe 3ba2 963e 0146 193d
000001e0: 03a4 933e c5fa 9c3e f743 b33e d03a a73b
000001f0: 88d5 ea3d 54c5 bcbe b20b cabd 70e2 a5be
00000200: cb19 38bb e970 ddbc d802 5dbd 6d0f ad3d
00000210: cd5d 843e 69a0 84bd f309 853d a5b3 f8bd
00000220: 1928 de3c 69df eb3d 086d 8dbc 6047 40be
00000230: 7248 813e cde9 52be 0edb e23d 472a c13e
00000240: 5e4b 433c 647b e53d 5457 af3e d273 b83e
00000250: 4dbf a3bd 3355 b63e 267b a93e 2c83 923d
00000260: 6728 3dbe 6b96 b9be 918e 94bd a534 8abe
00000270: 8844 7a3e 51e1 6b3d 0d8b 95bd a079 96bc
00000280: 5837 b0be 045e 42be 6c3d 9b3e 7abc fc3d
00000290: 496d 5ebe 40a8 f4be ab3f 0cbf a22c d3bd
000002a0: 639b 6cbd a30c 3abd 295b e03d e54b 7dbc
000002b0: d5ef 0cbe b6c8 59be 94f6 a9be e13c f0be
000002c0: e188 bcbe 1ef5 95bd de66 2ebe f6fc 693e
000002d0: 3ccb de3d 4fd9 64be 7367 ccbe 9575 0bbe
000002e0: 0653 f3bd ef91 5abe 460d b7be 8824 38bd
000002f0: 6a3f 203e 625e 82be 0a6f 69be 12e2 7abe
00000300: c99f e4bd ebd4 993e 1708 84be ba5d 803e
00000310: 87ca d33d c21e 4cbe 4ffb d23c c5dc 8fbc
00000320: 1017 e2be a239 0fbd eef9 4abe 09e0 38be
00000330: bf96 a8be 1be9 14bf 8a91 edbd 7506 6d3e
00000340: c6c5 f9bd 91f8 54be 10ba 313e 501a 6abe
00000350: b785 4cbe 9ada e9bd d370 1e3e dcc9 2a3e
00000360: 0575 9d3e 1e1e 77be d993 1e3e ef8f d43d
00000370: 5e50 153f 937c 9fbe 2b15 dabd 55ad 0fbe
00000380: 7a7b 91be a838 2dbe 97a7 dcbe 7bc7 03bf
00000390: f9a1 ccbd 1717 4c3e 7f04 88be 6dfe 8dbe
000003a0: b681 16bf 8697 cebd e3fb c8be bbae 35bf
000003b0: d5dc 01bf 79cf a5be feac f0be e41f 0bbe
000003c0: 0928 1cbe e232 87bd f035 adbd 042f fb3d
000003d0: 538a 0cbe 1ebe a23e 2efa a7be 659c 2d3e
000003e0: 620c 46be fafc 0abe 9e53 913c 5eb7 cdbe
000003f0: 8d1e 7d3e c8eb 9e3e 9087 963d 4c64 95bd
0.014977779 0.13408725 0.0854678 -0.18596052 0.11353597 0.18981703 0.078602515 0.15559985
-0.06097533 -0.46614692 -0.21314012 0.3298942 -0.20782739 -0.3045755 0.62572604 0.11913007
0.12187227 -0.33598945 -0.2881194 0.01039984 0.2847122 0.07778063 0.029802468 -0.041517675
0.5178968 0.053992543 0.4797199 -0.049055178 -0.015646841 -0.4660323 -0.46066496 -0.073286615
0.058597926 0.07335995 -0.009619867 0.0115559185 -0.29831937 0.1908502 -0.3517829 -0.09826977
-0.08786932 -0.13969111 -0.31110203 0.100460015 0.13438016 -0.32574487 0.05263954 0.035900444
0.15351565 -0.20763844 -0.05058741 0.1163448 -0.19417316 -0.092497334 -0.20032817 -0.33310068
-0.23879972 -0.010744366 -0.309524 0.35227272 0.08594272 0.10330495 0.2433337 -0.22933684
-0.027782254 -0.14431225 -0.39578295 -0.13460481 -0.013694223 0.027576866 -0.07631701 0.021703694
0.3548276 0.04502888 -0.22335693 -0.14836344 0.023736812 0.29171515 0.3250793 -0.21449712
-0.07851259 -0.12700337 -0.056336064 -0.15431692 0.019320855 0.19110209 0.29802012 -0.13384399
-0.11645356 -0.49755052 -0.7585828 -0.28290033 -0.34097055 -0.16334002 -0.60238814 -0.050398637
0.14316408 0.04178749 0.20321111 0.049294814 -0.11119349 0.35985988 0.2430265 -0.29175296
0.10210925 -0.5572427 -0.11891553 0.30908874 -0.07378839 -0.2976461 -0.01870002 -0.23816556
-0.02278547 -0.21830991 0.22088696 0.06512731 -0.045304388 -0.36600775 0.29420647 0.037420277
0.2883607 0.30660072 0.3501279 0.0051034465 0.11466509 -0.368693 -0.09865512 -0.3239932
-0.0028091546 -0.027031379 -0.05395779 0.08450208 0.25852814 -0.06475908 0.06496038 -0.121436395
0.02711873 0.115172215 -0.017263904 -0.18777227 0.25250584 -0.20597 0.110769376 0.37727568
0.011919824 0.112051755 0.34246314 0.36025864 -0.07995472 0.35611877 0.33101767 0.07153925
-0.18472444 -0.36247572 -0.07253755 -0.2699329 0.24440205 0.057587925 -0.073019125 -0.018368542
-0.34417224 -0.18981177 0.303203 0.123406366 -0.21721376 -0.47784615 -0.5478465 -0.103112474
-0.057765376 -0.045422208 0.109548874 -0.015459989 -0.13763364 -0.21267971 -0.33195937 -0.46921447
-0.3682318 -0.07322143 -0.17031428 0.22850403 0.10878608 -0.22348522 -0.39922675 -0.13619073
-0.1188107 -0.21344732 -0.35752314 -0.044956714 0.1564919 -0.25462633 -0.22796264 -0.24500301
-0.11163289 0.30045256 -0.25787422 0.25071508 0.103413634 -0.19933608 0.025754599 -0.017561326
-0.4415822 -0.034967072 -0.19821903 -0.18054213 -0.3292751 -0.5816819 -0.11600025 0.23146994
-0.121959254 -0.20797946 0.17356133 -0.228616 -0.19972883 -0.11418648 0.15472727 0.16678566
0.3075334 -0.24132583 0.15486087 0.10379016 0.58325756 -0.3114973 -0.10648569 -0.14030965
-0.28414518 -0.16916144 -0.4309661 -0.5147626 -0.09991831 0.19930683 -0.2656593 -0.27733174
-0.58791673 -0.100874946 -0.39254674 -0.7096974 -0.5072759 -0.32384852 -0.47006983 -0.13586384
-0.15249647 -0.06601502 -0.084575534 0.12264827 -0.13724642 0.31785673 -0.3280806 0.16954191
-0.19340661 -0.13573065 0.017740067 -0.4017896 0.24718685 0.31039262 0.07350075 -0.07294521

weight_hh_l0 f4 [40, 10]
00000000: 20bd 433f e1a9 09bf d5c4 a03d 818e f33e
00000010: 185c 23bf d2cd 08bf 9659 d13d 2127 0abe
00000020: 1a96 ae3e d896 c7be 5f5b 0b3e 85e4 7ebe
00000030: d546 79be 1223 283f 0ecd 05be 1267 1c3f
00000040: f88f a0be 1845 5fbd e241 57be a2bd 32bd
00000050: f705 4c3e 932e 8f3e 18b9 653e 986a 22bf
00000060: 9441 0fbe ef9c 7abe aa07 d5be 3738 9dbd
00000070: ee90 09be 8632 063d f07d fdbe 3a6d 233d
00000080: 0da1 dfbe 9b67 743e 592a 04be feb7 8e3e
00000090: 0016 cfbc 96c7 c9bd a555 043e d1d8 43be
000000a0: a0fd cc3d 26b0 a83b bffa 9c3d 3636 ecbe
000000b0: 19f2 ae3e e6f7 6abd 0a31 c63d 6002 51bf
000000c0: f30d c0be 0044 e3be a25f 633d 6f6a 9e3d
000000d0: 5944 37be 55f1 6f3d 9ee5 aa3b f920 1abe
000000e0: 41d0 a2bd 4692 0e3e c772 4cbe 019b 03be
000000f0: 098d 27bd f466 fd3e 629e ae3d a8fd c7bd
00000100: 8d34 17be 3b96 d3be 5c66 983c 5341 1a3e
00000110: 5583 ebbe 381d 963e dead 7c3c 70b2 a5bc
00000120: d49d 3bbe 4f75 98be a94e 853d a218 1bbe
00000130: 8b74 4dbe 65be ec3e 5bb1 98be bb76 00be
00000140: 2cc7 d4be 5041 1d3e ee37 a8bd 0b10 da3e
00000150: 7479 983e 21bc b43e ff3a 8cbe 3100 513e
00000160: d9b1 7cbe 0aa1 533e 537d 133f 42f7 81be
00000170: ce70 12be f683 063f 1a44 0fbe 1ff5 b63e
00000180: e4a6 d0be 2e29 c7bd cb9d 0d3e bb75 b33d
00000190: aad2 2d3d 1bdd 9d3d 2ead f83e 9474 303d
000001a0: 80b1 943e a3b4 7cbe 5177 c33e ff92 6bbd
000001b0: 8729 743e b410 07bf f973 3f3e 3bb8 b03e
000001c0: d441 bd3d 2958 16bf 4a70 2cbe eff9 373e
000001d0: ec49 64bd 5172 243f b00e 7b3e 01cb c8bd
000001e0: 7a1f 3c3e cb70 093f 983b 02bd 70ee cf3d
000001f0: 9447 46be a5dd 213e 574d 33be 0e4a 22be
00000200: a437 47bf 4071 68bd 927a a1bd a4f7 d83e
00000210: 3451 7b3e 48b8 bcbd 610a 3fbe 784e 42be
00000220: c907 be3d b290 9c3e 27d7 963c da06 40be
00000230: 61d5 043e 058e 4bbe d9fe 2f3e f3a1 a5bd
00000240: ac94 8abd 1f96 573e 89b7 8abe c5f7 2fbf
00000250: 8b46 f73e 8eb9 5cbe 7a95 42be 4def c5be
00000260: 4be6 4c3e 72f5 8d3e 246f aabe 2325 9c3d
00000270: 40c0 d8be c01d bd3e cc5a d03e 93fc 563e
00000280: 4d88 da3d 1e59 333e 79b9 a73e 193a 333e
00000290: a51e a23e 3a3b 403f 1001 013e c6f7 ab3e
000002a0: 496b 4d3e 8e1d 09bf 50fb cdbd 607e 0e3e
000002b0: 00eb 8dba f1e6 273e 27e6 ebbd 5259 2d3e
000002c0: 248f 143e ef22 763d a0ba be3e 42bb dcbd
000002d0: c933 01bd 44a5 dcbe d8aa c6bc 8fec 04bf
000002e0: 794d 5b3e 28b3 393e 5d29 cbbe 4113 4b3d
000002f0: ade0 1a3e da90 d23e 99e5 edbe 4ceb 1bbe
00000300: 60a2 77be 8ed2 f8bd 7c01 81bd 3d27 74be
00000310: 16c4 093e 58d4 3f3d 6856 e2be b894 45be
00000320: 8e9b 0c3e 285a 503c 962f 83bd 8097 03bf
00000330: ab6a e6bd 8896 76be ae01 3abe 95d0 aa3c
00000340: 9d6e 61be fa47 9a3d ddda 133e c37a 8bbe
00000350: 129c 6d3e fd73 6e3e 2456 be3e 0868 60be
00000360: c2d7 c63d 3edc 9cbd 7e67 3b3f f5d3 c9bd
00000370: b5f5 e8bd 27fd d5be 57c6 5a3e ec39 103e
00000380: b1a4 ccbe 272d 72be 8738 173c b879 4bbe
00000390: 054d 7cbe 9f0f 6fbe 7f36 80bd af03 98bd
000003a0: 3d26 cebd 32a9 873e 7dbc ddbe df75 153e
000003b0: a61b b4bb 2484 e83d e2a7 c13d deff 70be
000003c0: c4cd 59be 6df5 92bd ce68 723e ecf3 a03d
000003d0: 6f09 803e 39f2 2ebe cd08 d03d a508 70bd
000003e0: d5c2 a53d 9b8c ff3e 42e8 63be 659d 0e3d
000003f0: 0820 05bf 95b2 9cbe cee5 7bbe 169c abbd
0.76460457 -0.5377484 0.07850043 0.4756966 -0.638124 -0.53439057 0.10222165 -0.13491489
0.34098893 -0.38982272 0.13609074 -0.24891861 -0.24343427 0.65678513 -0.13066503 0.6109477
-0.3135984 -0.054509252 -0.21021226 -0.04363788 0.1992415 0.2796522 0.22433889 -0.634439
-0.1398986 -0.24473928 -0.4160741 -0.07676738 -0.13434193 0.032763027 -0.49510145 0.03989909
-0.4367756 0.23867647 -0.1290678 0.2787475 -0.025279045 -0.09852521 0.12923296 -0.19125678
0.10009313 0.0051479517 0.076650135 -0.4613511 0.3416908 -0.05736532 0.09677322 -0.8164425
-0.37510642 -0.44387817 0.055511124 0.07735144 -0.17897166 0.05857976 0.005215361 -0.1505164
-0.079498775 0.13922986 -0.19965659 -0.12852098 -0.040905986 0.4949261 0.08526303 -0.09765178
-0.1476614 -0.41325554 0.018603496 0.15063982 -0.45998636 0.29319167 0.015422313 -0.020226687
-0.18321925 -0.29777 0.06509144 -0.15146115 -0.20063989 0.4623901 -0.2982281 -0.12545292
-0.41558206 0.15356946 -0.08213793 0.42590365 0.2978016 0.3529978 -0.2738876 0.2041023
-0.24677218 0.206669 0.57613105 -0.25383955 -0.14300844 0.52545106 -0.13990822 0.35733888
-0.40752327 -0.09724651 0.13829724 0.0876269 0.042437233 0.07708188 0.48569626 0.043079928
0.29041672 -0.24678282 0.3817697 -0.057513233 0.23843966 -0.5275986 0.18696584 0.34515557
0.09241071 -0.5872827 -0.1683971 0.17966436 -0.05573456 0.64236933 0.24517322 -0.09804345
0.18371382 0.53687733 -0.031795114 0.101529 -0.19363242 0.15807207 -0.17509972 -0.15848562
-0.77819276 -0.05674863 -0.078847066 0.42376435 0.24542695 -0.09214836 -0.18656303 -0.18975246
0.09278829 0.30579144 0.01841314 -0.18752614 0.12972023 -0.19878395 0.1718706 -0.0808753
-0.06766638 0.2105336 -0.2709315 -0.6873744 0.48296008 -0.21555158 -0.19002333 -0.38659135
0.20009725 0.27726322 -0.3328792 0.07624271 -0.42334175 0.3693676 0.40694273 0.20994787
0.106705286 0.17514464 0.32758692 0.17502631 0.31664005 0.7509037 0.12598062 0.33587474
0.20060457 -0.5356072 -0.100577 0.13915396 -0.0010827482 0.16396691 -0.115185075 0.16928604
0.14507729 0.06009191 0.3725176 -0.10777904 -0.031543527 -0.43094838 -0.024251387 -0.5192346
0.21416272 0.18134749 -0.39679995 0.04957891 0.1512477 0.41126138 -0.46464232 -0.15226477
-0.24183035 -0.12149535 -0.06299111 -0.23843093 0.13453707 0.046833366 -0.44206548 -0.19295013
0.13731214 0.012716807 -0.06405561 -0.51403046 -0.11250814 -0.2408086 -0.18164703 0.020851413
-0.22014852 0.0753326 0.14438958 -0.27242097 0.23204067 0.23286434 0.37175095 -0.21914685
0.09709121 -0.07659195 0.7320479 -0.09854881 -0.1137499 -0.41794702 0.21364723 0.14084595
-0.399694 -0.23650037 0.009229786 -0.19870651 -0.24638756 -0.23345803 -0.06260394 -0.074225776
-0.10065887 0.26496273 -0.43307868 0.14595746 -0.00549646 0.11353329 0.09455849 -0.23535106
-0.212699 -0.071757175 0.23672792 0.078590244 0.25007197 -0.17084588 0.101579286 -0.058601994
0.08093802 0.4991196 -0.22256568 0.034818072 -0.52002 -0.30604997 -0.24599382 -0.083793804

bias_ih_l0 f4 [40]
00000000: 3858 86be 5b9b 30be bc9b 9e3e 33a7 243e
00000010: d20f a13d e9dd b23e d0d2 70be 4298 983e
00000020: 9f87 fc3d 77ba 013f 770e a7be 9f10 98bd
00000030: 27fe f33e 6c18 693e 4f95 423c 1f24 733e
00000040: d6b8 e43e 7dfd 4c3e 941b 78bd 05e1 fcbe
00000050: 523d 76be 410a bd3e 0417 19be 390d 6cbd
00000060: 03ae 9d3d 728a 233e 0125 a1bc 870f 9abd
00000070: f4cf d8be 33ab 1f3e 2105 07be 9232 bbbd
00000080: eab5 533e 0db2 9b3e ef81 723e 5884 4ebc
00000090: 77ac c4bd f61e 093f a211 003e 62f4 c53e
-0.2623918 -0.17246763 0.3097819 0.16079406 0.078643456 0.3493493 -0.23517919 0.29803663
0.12330555 0.5067515 -0.32628223 -0.07425045 0.4765484 0.22763222 0.011876418 0.23744248
0.4467227 0.20018573 -0.060573176 -0.49390426 -0.2404683 0.36921886 -0.14950186 -0.057629798
0.07699206 0.15970781 -0.019670965 -0.07522493 -0.42346156 0.15592651 -0.1318555 -0.09140505
0.20674863 0.3040928 0.23682378 -0.012604795 -0.096032076 0.5356287 0.12506726 0.38663012

bias_hh_l0 f4 [40]
00000000: c4b0 1fbf 9e6a 10bc 13b2 5d3e e7fe 953e
00000010: 6d89 bcbd ef4c 6c3e d67c c4be 0ad7 283e
00000020: 3ff5 1a3f 62a6 0b3e df1e 9fbd a65f bf3e
00000030: 9055 9d3e fcc9 8f3e 60c6 0a3e 2c11 e13e
00000040: eba8 42bd d396 013e c7d6 02be 5c64 5dbe
00000050: 203c 69bd e310 163f 52aa ec3d 0ed8 db3b
00000060: 51a0 2fbe 05a6 1dbe 18b1 303e 3e06 1fbe
00000070: 946a 5dbe 2202 9e3e 8119 33be 4642 bebd
00000080: 662e d33e 437f ae3e fd75 d73d 0580 e23c
00000090: 72c5 d53d c504 c93d 595d 883e 3cf1 debc
-0.623791 -0.008814482 0.21649961 0.29296038 -0.092058994 0.23076223 -0.38376492 0.16488281
0.60530466 0.13637689 -0.0776956 0.3737766 0.30729342 0.2808379 0.13552237 0.43958414
-0.047524374 0.12655191 -0.12777244 -0.21620315 -0.056942105 0.5861952 0.115559235 0.0067091053
-0.17151 -0.15395363 0.17255056 -0.15529725 -0.21622688 0.30861002 -0.17490198 -0.092899844
0.41246337 0.34081468 0.10520551 0.027648935 0.1043805 0.09815363 0.2663372 -0.027214639

weight_ih_l1 f4 [40, 10]
00000000: b771 363d e1d5 0a3e 9b3b 62be bbd5 2fbf
00000010: 8729 63be 958e ce3e 977f 9cbe ca5a e43e
00000020: 3d7b a63e b236 38be bc21 f5be e981 b33e
00000030: f616 a03e 8f49 253f 224d e93e 2bd1 92be
00000040: 8e6b dabe 5619 60bd b1c6 60bf 5112 a53e
00000050: f093 42be f220 fe3e e06a 743e 905e fabe
00000060: 0e6a 9e3e a9d4 073f 22fb a0be 0a15 e0bd
00000070: 2d64 243c eab5 763e f634 8e3d 113a 63bd
00000080: 0a05 a83e c9fe cf3d 4191 02be b201 a23d
00000090: 795a e4be 88e5 8b3e 0892 51be 5284 043f
000000a0: 6fec a33d 7313 1f3f 2fe7 4a3f a9cf f53e
000000b0: c086 6cbe e36b c53e 54c7 cc3d a28e da3e
000000c0: 4e35 f4be 91d7 373f 77ef aebe b85a 463f
000000d0: 2088 e43e e1e6 0abe 3464 1f3d c592 213f
000000e0: 3c4c dd3d 7bbf debe 2251 0e3f 6ea0 5d3e
000000f0: 261a 9b3e 7974 323f 5f8d 0b3f ea88 bd3e
00000100: 09ef 84bd 5b9a ac3e 3eca 8a3b c0d9 ffbd
00000110: 7b43 9fbe f9e8 a73d 7718 97be cb18 003f
00000120: f210 993e 56fa a3be 30f9 7abe 536a 453e
00000130: a0f0 7d3d 6848 0a3f d725 efbe 5436 3a3f
00000140: 901a 85be 54c0 083f 1c48 d93e fcaf 6bbf
00000150: 82ad e33d 757c 6c3e 152a 29be dcd1 9e3d
00000160: 5b8d 99be d330 62be 297a c73d d2fb 783f
00000170: ecd6 643f f9ab adbd b977 713d 980d 133c
00000180: 9f21 933c cb1e 253e de6e 113e 3d1b 2e3f
00000190: f9a5 72bd f310 65bf 5396 9b3c b4e1 4dbe
000001a0: 6f25 11bf 7010 813e 83c2 623d 8e31 c63e
000001b0: 5de5 20bd b706 973e e913 20be 56b9 3bbe
000001c0: 9055 20be 98d4 063f 5456 823e db08 ccbe
000001d0: 0847 82be 3832 903c a94c 9dbe 2bc3 ea3e
000001e0: 48e7 07be 262e ccb9 c0ee 2d3f 8eef 1f3e
000001f0: 27b6 fdbd b47a a0be 88e5 203e df2c 2c3f
00000200: 7d00 7ebd 5553 1a3f c38c 6ebd 9f0e a53e
00000210: ddb0 5e3e 56af 303e 4299 713e e3d3 793e
00000220: 1cfd d0bc fe14 7bbd 4ba9 9fbe c097 b73e
00000230: 6042 033f 32cd 3d3e e863 053f 5933 033e
00000240: 9118 cebe 8f37 91be 711b 1e3f 28ea 9d3e
00000250: a560 c6bd 7f20 473f 1bbd 7d3d 8cf6 173f
00000260: c705 41be 09a2 58bd fc97 fc3e b46e e83d
00000270: eb73 a23e 5b33 143e 89d1 97be f325 843e
00000280: fdc1 373f a51c 553e b998 2d3d 57f1 d4bd
00000290: b3b0 3b3e f7f4 053e 8657 97be d769 c63d
000002a0: 748d 74bf bb4f 063f 1a60 c9be 3e77 d33d
000002b0: ade2 61bb 7c08 f6be daa2 e93e 2dea 8f3e
000002c0: 83a9 3ebe e426 06bf 1344 093e 3e2b 133e
000002d0: d0e0 b9bd 90d6 233e 3f8f 1a3f b469 f1be
000002e0: 6e53 823d f698 6cbe 7085 09be 7d10 383f
000002f0: 1279 493d b3ad 16bf dabb 64bd 17db 283f
00000300: b30b 0a3f 33e4 14bf 92c8 1e3d e7a9 243e
00000310: a7bc f33d 5473 403f 0d35 d8bd c39c a03c
00000320: 0f18 25bf 130f e0be b3f2 dd3e b976 8f3e
00000330: 1b6d d6be 1b13 223e 2658 91be 5f9e d73d
00000340: 7671 47bf 303a bc3e d044 7c3c df34 8f3e
00000350: be57 7f3e d5a7 4a3f 8d49 9d3e 4e32 ca3e
00000360: 4293 febd 0f61 5fbe 3c79 28be 53ea a23e
00000370: 0225 de3e eee7 893e 787a db3d c73d 2dbf
00000380: d87a 0fbf d72b a53e f1f9 753d 42bf d1be
00000390: ae95 333f a57f 22bf ab39 963e a15c a83e
000003a0: 7753 533e 7070 86bd f9ca 4cbf 364a 083c
000003b0: c792 b2be f228 0abe 9390 7d3e 5ce3 6ebe
000003c0: 97df cebd 9160 3c3f 29ef a43e 0863 d8be
000003d0: b73f 9a3e 16a4 7ebe 446e 103f dd48 a8be
000003e0: 6785 63bf 3e5d b23e 89e6 47be 4c9f 61bd
000003f0: 3b4f 5dbe d081 d73e d66c 813e 8fff 423f
0.04454204 0.13558151 -0.2209305 -0.686855 -0.2218381 0.40343156 -0.30566093 0.44600517
0.32515898 -0.17989615 -0.478773 0.3506005 0.31267518 0.64565367 0.4556666 -0.28675207
-0.42660183 -0.054711662 -0.8780318 0.32240537 -0.19001746 0.4963451 0.23868895 -0.4890027
0.30940288 0.5305887 -0.314416 -0.10941513 0.010033649 0.24092832 0.06943695 -0.0554753
0.32816344 0.10156018 -0.12750722 0.079104796 -0.44600275 0.27323556 -0.20465863 0.51764405
0.080040805 0.6213905 0.7925901 0.48009995 -0.23098278 0.38558874 0.09998956 0.42686945
-0.47696918 0.71813303 -0.34167072 0.77482176 0.44635105 -0.13564636 0.03891392 0.6311458
0.10805556 -0.43505463 0.5559255 0.2164323 0.30293387 0.69708973 0.5451259 0.3701852
-0.06490905 0.33711514 0.004235535 -0.124927044 -0.3110617 0.08198733 -0.29510853 0.5003783
0.2989574 -0.3202693 -0.2450912 0.1927884 0.061997056 0.54016733 -0.46708557 0.7273915
-0.25996828 0.5341847 0.42437828 -0.92065406 0.11117078 0.23094352 -0.1651996 0.07754871
-0.29990658 -0.22088937 0.09740097 0.9725925 0.89390445 -0.08480067 0.058952067 0.008975409
0.017960368 0.16125028 0.14202449 0.6801031 -0.059240315 -0.8947899 0.018992579 -0.2010563
-0.56697744 0.25207853 0.055361282 0.38709682 -0.039281238 0.2949731 -0.15632595 -0.18332419
-0.1565764 0.5266814 0.25456488 -0.39850506 -0.25444818 0.017602071 -0.3072255 0.45852026
-0.1327182 -0.00038944295 0.6794243 0.15618727 -0.123882584 -0.31343615 0.15712559 0.6725597
-0.062012184 0.60283405 -0.05823971 0.32237718 0.21747155 0.17254385 0.2359362 0.24397235
-0.025511317 -0.061299317 -0.31183848 0.35857964 0.51273155 0.18535307 0.5210557 0.12812556
-0.40253118 -0.283627 0.6176062 0.3084271 -0.09686402 0.7778396 0.061947923 0.59360576
-0.1884986 -0.052888904 0.49334705 0.1134924 0.31729063 0.14472716 -0.2965205 0.25810203
0.7178038 0.20811708 0.042381976 -0.103975944 0.18329124 0.13081728 -0.29558963 0.09688156
-0.9552834 0.5246541 -0.39331132 0.10325478 -0.0034467385 -0.48053348 0.45632058 0.2810835
-0.18619351 -0.5240309 0.13404875 0.14371964 -0.09076083 0.15999818 0.60374826 -0.47150958
0.06363569 -0.23105225 -0.13429809 0.7190016 0.049187727 -0.58858794 -0.05584321 0.65959305
0.539241 -0.58160704 0.038765498 0.16080438 0.11901217 0.75175977 -0.10556994 0.019606
-0.64489836 -0.437615 0.43349227 0.28020266 -0.41880116 0.158276 -0.28387564 0.10528254
-0.779075 0.36763144 0.015397266 0.27970025 0.24935815 0.7916234 0.30720177 0.39491504
-0.12430431 -0.21814369 -0.16452497 0.318194 0.4338761 0.2693476 0.107167184 -0.6767239
-0.5604682 0.3226001 0.060052816 -0.4096623 0.7015027 -0.6347602 0.29340872 0.3288317
0.20637308 -0.065644145 -0.7999721 0.0083184745 -0.34877607 -0.13492182 0.24762182 -0.23328918
-0.1010124 0.7358485 0.32213715 -0.42263055 0.30126736 -0.24867281 0.5641825 -0.3286809
-0.8887543 0.34836763 -0.19521536 -0.055083558 -0.21612255 0.42091227 0.25278348 0.761712

weight_hh_l1 f4 [40, 10]
00000000: 9698 c33e c63e c8be 8819 4e3e 4f88 96be
00000010: 78a8 5fbf b86f 11be 856d 6c3f 634f f33e
00000020: 6366 8bbf cb5b 27be d416 733f 27e1 4d3e
00000030: f434 98bd d2bd 873d 1a49 b5bd bab6 613c
00000040: 95c9 8e3e d726 b3be 4127 0bbe 4c90 f8bc
00000050: 64b0 113f f9fb f43e cd6a 133e ac73 08be
00000060: cc16 4c3e 01af 363e e639 9e3e 4b33 c43d
00000070: a5ff 8fbf 8e9d 33bf 4f07 423f 40f7 873e
00000080: aa1b a93d 0c9a e63c 0a12 4e3e fa52 6b3e
00000090: cede 5dbe b754 933d 8fa6 27bf a8ad c53d
000000a0: c031 483f 04ea f63e 0f37 a3be b4fc f63e
000000b0: fd6b 8c3d 2bd6 4e3e 0ef7 e8be 8143 9dbe
000000c0: 5b13 a3bd 7d74 0c3e e317 ca3e 53bd 133d
000000d0: 9b9d bd3c e468 16bc ad5d f23d ff82 23be
000000e0: 35f8 aebd df51 a53d 8313 babd bd6f 293e
000000f0: d2af 063e 857f f7bd fe23 e0be 0c52 14be
00000100: 18b2 f5be 2e07 473f a4f4 0f3e d2ce 183c
00000110: 14dc 27bf 17ff 7dbe 870a 853f 9510 b83e
00000120: 041a 91be 6098 53be 787f cabd 7e7c 413f
00000130: 66b3 4c3c c293 b73e f7f0 45bf 40c6 1ebe
00000140: 0262 933e aa8f 083e adfe 223e 23ad 8e3e
00000150: ee27 17be 2d8f de3d 0468 1ebe b232 c9bc
00000160: 09bd c9be 20db 853e de5f 713e f1e0 973e
00000170: 9465 0ebe 66c5 6dbc 6108 c53e e88a 8c3e
00000180: df26 3fbe 3b3c 9dbd ced4 73be ad5a 98be
00000190: 2c05 173e fbcb 13bf 311c 75bc b5fa d93c
000001a0: f97e a1be 3ff4 bb3e 1534 c73e 0855 7039
000001b0: eda7 36be 63e6 3abe 60cd 613f 4c13 b7ba
000001c0: a11c 1fbe 6f9f a73e a713 b03e 3d31 6e3e
000001d0: 582b d4be f5b1 f0be 6f30 21bd 2030 533e
000001e0: e1ac 963e a893 be3e 64b6 a93d 0715 653e
000001f0: e7f9 ad3e 1564 8fbe cb8e 8dbe ef15 f2bd
00000200: b3e2 5abe 7090 10be 63ac b23c b9a7 28be
00000210: e42f de3e e7ac c13e da8d 413d 1998 633e
00000220: ba27 92be e908 d43d 4328 babe 20f8 6bbe
00000230: 923d 073f 0987 4e3d 08af a5bd 9d31 943d
00000240: 0330 243e 9837 043f 2087 513e 2188 50bf
00000250: c87e 16be 6dbb 00be 6d02 0ebe 7604 5a3e
00000260: 13e1 95be 7b18 76be 70fe 1e3e 0e57 cf3d
00000270: 22b7 15bf 66e3 6fbd 5b0d 893e 578e b73d
00000280: a9ce 003c 03e0 94bd 2f90 1fbe d8f2 513e
00000290: b6a5 813e 3cc3 d23d 23ad 253e 9000 9bbd
000002a0: 802e d63d f566 57be be03 c83e e3c3 e63e
000002b0: a93f e8be d947 ca3e 91bc 313e 58c1 9c3e
000002c0: 2777 7d3e 7f4f b0be da11 763e aa0a e0bd
000002d0: 3be1 1a3e 5f96 c93d 6824 a33c 0431 533d
000002e0: 6341 78bd e114 93be a320 26be 1898 26be
000002f0: 5154 12be bdef 16be 34e8 2bbf e85b 9b3e
00000300: 16d8 6dbe 81d1 553d 5771 423e 4f8f 9a3e
00000310: 1671 f4bc 566d 77bd 8951 8a3e 774c f3be
00000320: b5a6 d33c d67e 1f3d 7f0e 8f3e ce96 ef3e
00000330: c8c9 6bbe 3550 40be 2088 b8bd 1e41 e3be
00000340: b345 29be ae80 bf3e b5a7 26bf 0171 8bbc
00000350: 6171 d5bc 5a6a 8a3d f20a 2d3e 1632 d33e
00000360: 2136 24bf cb36 173d 768f b5bd 8d85 80be
00000370: c12e ccbc 6c2a 69be e6cf 14be 0ad2 763e
00000380: 9fd9 47be 2922 34be 3333 64bd 1257 0a3d
00000390: 4035 a83d 1296 19be 46e6 2c3e 96a1 2cbe
000003a0: 662b b43e 6ec7 34bc defa 1d3e 2850 9a3e
000003b0: 77b8 3ebe 01fe 48be 5109 37be b077 c33d
000003c0: 1a27 2abd 38e4 39be 8261 52bd bcc9 203e
000003d0: 5746 953e 3be6 a63d 7076 aebe 1d5d b43d
000003e0: 79aa d5be 7b49 a1bd 50c5 5d3d 7e0d 99be
000003f0: d86e 953d 7c38 4cbe 634f 8fbe d65a f6bd
0.3820235 -0.39110392 0.20126927 -0.2940087 -0.8736644 -0.14202774 0.92354614 0.47521505
-1.0890621 -0.1634361 0.9495671 0.2010542 -0.07431975 0.06628002 -0.08851834 0.013776476
0.2788817 -0.3499057 -0.13589193 -0.030342244 0.56909776 0.4784849 0.1439621 -0.13325375
0.19930571 0.17840196 0.30903548 0.09580096 -1.1249892 -0.70162284 0.757924 0.26555824
0.082572296 0.028149627 0.20124069 0.22980872 -0.21667024 0.071938924 -0.65488523 0.09652263
0.7820091 0.48225415 -0.31877944 0.48239672 0.06856535 0.20198886 -0.45500988 -0.30715564
-0.07962676 0.13716312 0.3947135 0.036069226 0.023146441 -0.009180281 0.118342735 -0.1596794
-0.085434355 0.08072256 -0.09085753 0.16546531 0.13153008 -0.12084869 -0.4377746 -0.14484423
-0.47987437 0.7774533 0.14058167 0.009326654 -0.6557019 -0.2480434 1.0393838 0.3595015
-0.2834016 -0.20663595 -0.09887594 0.75580585 0.012493944 0.35854918 -0.7732081 -0.15505314
0.28785712 0.13336053 0.15917464 0.27866468 -0.14761326 0.10867152 -0.15469366 -0.024560306
-0.39402035 0.26143742 0.23571727 0.29663804 -0.13905936 -0.0145123955 0.38482955 0.27449727
-0.18667172 -0.07677504 -0.23811647 -0.2975668 0.14748067 -0.57733124 -0.014960335 0.026608804
-0.31542185 0.36709782 0.38906923 0.0002291986 -0.17837496 -0.18251948 0.88204 -0.0013967543
-0.15538265 0.32738826 0.34389994 0.2326097 -0.4143932 -0.4701077 -0.03935283 0.20623827
0.2942877 0.37222028 0.082867414 0.22371303 0.33979723 -0.28006044 -0.27648005 -0.1182059
-0.21375541 -0.14117599 0.021810716 -0.16470231 0.43395913 0.37827227 0.04725442 0.2222599
-0.28545934 0.10353262 -0.36358842 -0.23043871 0.52828324 0.05042175 -0.08090025 0.072360255
0.1603394 0.5164733 0.20461702 -0.81457716 -0.146968 -0.12571497 -0.13868113 0.21290764
-0.2927328 -0.24032776 0.15526748 0.10124026 -0.58482563 -0.058566473 0.26768002 0.08962696
0.007861772 -0.07269289 -0.15582345 0.20502794 0.2532174 0.10291144 0.16179328 -0.07568467
0.10458088 -0.21035369 0.39065355 0.45071325 -0.4536107 0.3950794 0.17357089 0.3061626
0.24752484 -0.3443565 0.24030247 -0.10939534 0.15124981 0.09843134 0.01991482 0.051560417
-0.060609233 -0.28726867 -0.16223387 -0.16268957 -0.14289977 -0.1473989 -0.6715119 0.30343556
-0.23226961 0.05220175 0.18988548 0.3018746 -0.02983908 -0.060407005 0.2701533 -0.47519276
0.025836328 0.03893932 0.27940747 0.46794742 -0.23026192 -0.18780597 -0.09010339 -0.44385618
-0.16530494 0.37402862 -0.6509965 -0.017021658 -0.02605504 0.06758566 0.16898707 0.4124915
-0.64145094 0.03691749 -0.088652536 -0.2510189 -0.024924638 -0.22770089 -0.14532432 0.24103561
-0.1951661 -0.17591156 -0.05571289 0.033774443 0.08213282 -0.14998654 0.16884717 -0.16858515
0.3518936 -0.011033876 0.1542773 0.3013928 -0.18625055 -0.19628145 -0.17874648 0.09544313
-0.041541196 -0.18153465 -0.051362522 0.15701956 0.29155228 0.08149382 -0.34074736 0.088068224
-0.41731623 -0.078753434 0.05414325 -0.29893106 0.072965324 -0.19943422 -0.27990255 -0.12029044

bias_ih_l1 f4 [40]
00000000: 7aa0 a33e 4dec 003d 5625 473f 245f db3e
00000010: f151 183f fd5a e93e 6831 3b3f b349 1b3f
00000020: aa88 233f 3e95 0d3f 666f 973a 5d6c c63e
00000030: 8528 873e 86c2 a13e 3fee dc3e 184e 603e
00000040: a90a f73e a27a 1bbd 3416 a2bd 2bca 6c3e
00000050: f0ce 423e 792d e33c 951b 923e c82d acbc
00000060: 06b2 c5bd 78e4 a83d 600e b23a 3414 3e3c
00000070: d736 9fbd 409e 17be 99ae 9c3e fc03 183f
00000080: 6d3a 323f e01b e13e 0787 723f 63e2 b63e
00000090: 38e3 123f 06f3 523f 7034 2d3f 1fa5 403f
0.3195837 0.031475354 0.77791345 0.42846024 0.5950003 0.4557723 0.7312226 0.6065933
0.6388041 0.5530585 0.0011553585 0.3875455 0.263981 0.31593722 0.43150517 0.2190479
0.4825032 -0.03795875 -0.07914391 0.23123996 0.19024253 0.027731644 0.28536668 -0.021017924
-0.09653096 0.08246702 0.0013584606 0.0116014965 -0.07774132 -0.14806461 0.30601957 0.5938108
0.696204 0.4396658 0.94737285 0.35719594 0.5737796 0.82402074 0.6765814 0.75251955

bias_hh_l1 f4 [40]
00000000: dc76 bd3e f40d b2bd 2683 913f 48e2 393e
00000010: ced2 e83e 19e8 b93e 60ff 343f d8a4 7c3f
00000020: 44fb 2e3f d6d2 4c3e 1b37 623e 5a8a b33d
00000030: 54bf bc3e 2e43 473e 0b5f 283f 9236 f23d
00000040: 3f20 69bd 56ae ad3d 2a83 393e 650e 5a3e
00000050: 5c96 f8bc a826 84bc e513 76be eaeb bbbd
00000060: b5fa a9bd 459e 7b3d c5bf 153e df1d 68be
00000070: 02de 6fbe a39b 17be 8a86 5c3f f9df 003f
00000080: 047e 823f 73a4 303f 28e1 0a3f 9ffb f53d
00000090: 5a85 143f 2d5a a73f bb91 e43e e9e4 0f3f
0.37004745 -0.086940676 1.1368148 0.18152726 0.4547333 0.3630989 0.7070217 0.9868903
0.6835215 0.20002303 0.22091334 0.08766623 0.36864722 0.19459221 0.65770024 0.11826815
-0.056915518 0.084805176 0.18116441 0.21294554 -0.030345134 -0.016131714 -0.24031027 -0.091758564
-0.08299772 0.061430234 0.14623936 -0.22667645 -0.23424533 -0.14805464 0.8614279 0.50341755
1.0194707 0.6900093 0.5424981 0.120108835 0.5801598 1.3074394 0.44642434 0.56208664

weight f4 [10, 10]
00000000: e32a f3be 7240 87be ec1c 20bf 312f 2bbf
00000010: c54c 933e 132a 103f 1f97 683f bda2 623f
00000020: c1b2 d43e fadc 893f 00d9 403e 4517 553e
00000030: 531f 553f 0b42 d33e 068e 073f 6f7d 46bf
00000040: 889c 3ebf e026 a3be d3e7 0fbf 1d14 5ebf
00000050: ce60 c5be 9803 253f 6b9e 113e 6e98 ed3e
00000060: 1e22 8a3e 3855 8bbf 19fe 18bf 916c c4be
00000070: c311 753f e9c6 7c3f 3961 bcbe d58e d63d
00000080: 8af6 4fbf 2970 1fbf 607a 5ebf 39d6 e7be
00000090: f4d1 623f 821a bfbe b795 bf3e f795 f5be
000000a0: 38bc ccbe 6164 643e f99f ad3d 1f24 acbe
000000b0: e8a4 04bf 0d5a d93e 8138 133e 9f6d cdbe
000000c0: c377 39bd 2e51 64be 43ea b8bf 4daa 4ebe
000000d0: 5490 a03f f40e d9bc 7bef b8be 8577 cebe
000000e0: 0f8f 1b3f 8b12 5a3f b10a 10bf 2e02 8fbe
000000f0: fd27 413f ad10 81bf 42bb 083f d289 ec3e
00000100: 058d 49bf 0d50 06bf 6be2 6e3f 012c dabe
00000110: bfa8 79bc b472 86be 4608 f03e 9f2d 84be
00000120: 1cd4 393f c1bb 103f 4b68 84bf a431 f93e
00000130: 7852 2abf 5985 f1be c6ed 513f 18cb 4b3f
00000140: 8dde 8bbe ea78 0a3f 2f26 2abf 3f3a 1cbf
00000150: f4f3 643f cb1f f33e 6dce 02bf 4fa0 213f
00000160: 5cff 463f 6c50 2dbf 817b 653f 04f1 88bf
00000170: d217 26bf 1d92 13bf 0372 98be 1467 88be
00000180: 579a 083f 593d 733f 0892 2abf 59b5 0e3d
-0.47493657 -0.26416355 -0.6254413 -0.66868883 0.28769508 0.563142 0.9085559 0.8852957
0.41542628 1.0770562 0.18832779 0.20809658 0.8325092 0.41261324 0.52951086 -0.77535146
-0.744576 -0.31865597 -0.5621311 -0.8674944 -0.3855042 0.6445861 0.14220588 0.46405357
0.26979154 -1.0885382 -0.5976272 -0.3836408 0.9573023 0.9874101 -0.36792925 0.10476462
-0.81235564 -0.6228052 -0.8690548 -0.45280626 0.88601613 -0.3732491 0.3741891 -0.47965977
-0.3998735 0.22303917 0.08477778 -0.33621308 -0.51814127 0.42451516 0.14377023 -0.40122697
-0.04528023 -0.22296593 -1.4446491 -0.20182152 1.2544045 -0.026496388 -0.3612021 -0.4032556
0.60765165 0.85184544 -0.56266314 -0.2793135 0.7545164 -1.0083214 0.5341073 0.461989
-0.78730804 -0.524659 0.93314236 -0.42611697 -0.015237986 -0.26259387 0.46881312 -0.25816056
0.7258928 0.5653649 -1.0344328 0.48670685 -0.6653209 -0.4717205 0.8200344 0.7960677
-0.2731823 0.5409075 -0.66464514 -0.61026376 0.8943474 0.47485194 -0.5109623 0.63135237
0.777334 -0.6770084 0.89641577 -1.0698552 -0.64880097 -0.57644826 -0.29774484 -0.26641142
0.53360504 0.95015484 -0.66629076 0.034840915

bias f4 [10]
00000000: e293 ee3d 5d78 3bbe 30b4 1c3e d455 0e3e
00000010: 5206 4b3e f1f6 d33e 85cf ccbd 7eb3 2f3d
00000020: e487 34be be50 d5bb
0.116493 -0.18307634 0.15303111 0.13899928 0.1982663 0.4139934 -0.10000519 0.042895786
-0.17629963 -0.0065098694
